Pautomac_1_model/data/model.pth (torch, 297431 bytes, 6 tensors)

weight_ih_l0 f4 [512, 10]
000000 32 9e 5a bc 0a 49 e6 3d 4a ed 2b bd 85 12 b0 3d
       -0.013343381 0.112444 -0.041974343 0.08597282
000010 68 fc 39 bd 35 cd 56 3c 6f ad 6e bd 5d 7b 13 bd
       -0.04540673 0.013110449 -0.058270868 -0.03600632
000020 29 ba 84 bd 9d 40 fc 3a ed e0 4e 3d 6b 69 a2 bd
       -0.0648082 0.001924533 0.050507475 -0.07930263
000030 47 5a 9d bd b0 59 a9 3d b0 08 02 be 3d 8f 6e 3e
       -0.07683235 0.0826906 -0.12698627 0.23296829
000040 03 cc bb 3d 9b 76 6f bd d8 9e 6b 3e a2 3a 82 bd
       0.091697715 -0.05846272 0.23009813 -0.063588396
000050 91 d1 8b bd ab 35 e5 3c 62 30 1b 3e 5b 55 90 3d
       -0.06827081 0.027979692 0.15155175 0.0704753
000060 9c 60 8e 3d 48 b7 29 be 5b bb a6 3d 3c af 2c 3e
       0.069520205 -0.16573822 0.08141204 0.16863722
000070 d4 8f 0b 3e 44 94 78 bd 76 22 25 3d c1 09 79 3d
       0.13629085 -0.060688272 0.040316068 0.060800318
000080 cd 1f 55 3d da 4d 1b 3e f6 12 95 3d 2c 02 a5 3d
       0.05203228 0.15166417 0.07279007 0.08057055
000090 e0 4b 9b 3d 61 27 cb 3d a0 6b 30 bc c4 f9 ca bc
       0.075828314 0.0991962 -0.010767847 -0.0247773
0000a0 79 50 96 3c 6f 5c fb 3b cf 3d d7 3d a5 9d 3b bc
       0.01834892 0.007670931 0.10509836 -0.01145116
0000b0 b2 88 bc bd 5b de 99 bd bb 89 cc 3d 33 6c f9 3d
       -0.0920576 -0.07513114 0.099872075 0.121788405
0000c0 24 28 56 bd a4 fb 87 bd 14 81 98 bc 5a 4a 0f 3d
       -0.052284375 -0.066397935 -0.018616237 0.034983017
0000d0 1e 9d aa bd 98 6e 4b 3d 2f 55 ae bc 46 d9 9f 3d
       -0.08330749 0.049666017 -0.021280853 0.078051135
0000e0 df ef 32 3d 03 20 22 3c c6 c5 f0 3d c8 82 82 bd
       0.04368579 0.0098953275 0.11756472 -0.06372601
0000f0 ad 5a 3b 3d 4d 30 06 be 0d 39 17 3d d7 23 0c 3d
       0.045740772 -0.13104363 0.036919642 0.034213867
000100 e8 46 20 bd aa 30 f3 3d 22 3e fc 3d 51 04 58 3e
       -0.03913012 0.11874516 0.123165384 0.21095397
000110 d4 28 0c bd 80 6f b7 bd f8 bd bf bd 71 9e 81 bd
       -0.034218624 -0.08956814 -0.093624055 -0.063290484
000120 ef 8a 70 3e 56 d8 0c 3e fd 0e 6a 3d 00 68 c5 3b
       0.23490499 0.137544 0.0571432 0.0060243607
000130 c2 8e 98 bd b1 0c 41 bd 19 5e 77 3e 35 00 d0 bc
       -0.07449104 -0.047131244 0.24156989 -0.025390724
000140 83 cd 9a bd 1b e4 a7 3e 05 33 01 3f a8 cc 89 3e
       -0.075587295 0.32791218 0.50468475 0.26913953
000150 52 21 86 3e 67 f8 a8 bd 63 1c 95 be 40 52 a2 bd
       0.26197296 -0.08250504 -0.2912322 -0.07925844
000160 fa f0 9d be 06 20 f9 bd b8 15 4e bd 52 d4 10 3d
       -0.30847913 -0.12164311 -0.05031368 0.035358734
000170 51 df 87 3d c4 7c 05 be eb d1 91 3d f7 fb ae 3d
       0.06634391 -0.13035876 0.07120117 0.08544152
000180 77 9d e7 ba d0 b5 aa 3b 8d da 61 bd ce 22 68 3d
       -0.001767083 0.005209662 -0.055140067 0.056673817
000190 85 ff 1f 3d 07 80 5a 3e 3b a4 2e 3f cc 51 3b 3d
       0.03906204 0.21337901 0.68219346 0.045732304
0001a0 bf cd 45 be c9 25 90 3f 6c 77 e6 bb 66 a3 00 bf
       -0.19316767 1.1261531 -0.007033279 -0.50249326
0001b0 8a aa 23 3e ec 25 fb be 72 61 39 3c 12 94 d0 3d
       0.15983024 -0.4905237 0.011314737 0.10184492
0001c0 7d b8 76 3d 6d cb a1 3e 7d 2d bd 3d 4e 05 0d 3e
       0.060234535 0.31600514 0.09237192 0.13771555
0001d0 bb 64 05 3e 2a bf 83 bd 67 75 a2 3d fb 58 8e be
       0.13026707 -0.06432946 0.07932549 -0.27802262
0001e0 99 f2 19 bb 8c 89 21 3e d9 d4 f6 bd 53 26 7c be
       -0.0023490547 0.15775126 -0.12052316 -0.24623995
0001f0 bb 5b 6f 3e 87 38 d2 bd 5f d1 41 3e 53 1a 09 3e
       0.23374836 -0.10264688 0.18927525 0.13388948
000200 ee 86 c2 3e 44 78 fa 3c 28 cc 33 3d 9c c9 39 bd
       0.37993568 0.030574925 0.04389587 -0.045358285
000210 e2 0c b7 3d ce 69 99 3d 0e c5 db 3d 08 99 48 3d
       0.08938004 0.07490884 0.107309446 0.048974067
000220 b8 d2 aa 3d d1 f3 da bc 05 25 98 bd 5e 46 27 3c
       0.08340973 -0.026727589 -0.07428936 0.010209648
000230 96 af 95 3c ab 47 8f 3e f9 76 9d bd 65 71 2a bc
       0.018272202 0.27984366 -0.07688708 -0.010403012
000240 18 6e b4 bd c8 31 94 3e a8 9a b0 3c f7 7f 0f be
       -0.08810061 0.2894423 0.02155812 -0.14013658
000250 18 1c 3a 3e ed 8f 49 bd 51 71 19 3d da 14 96 3d
       0.1817478 -0.049209524 0.037461583 0.07328196
000260 e7 e5 8d bc 4e 94 ef bd 13 55 12 3e 02 09 38 3e
       -0.01732154 -0.11698209 0.14290266 0.17972186
000270 67 b2 54 3d 79 53 e7 3e 84 37 db 3d 12 bb 9f bd
       0.05192795 0.45180872 0.10703948 -0.07799353
000280 db 46 57 3d f5 0b ab bd 65 b1 8a 3e d4 bd bc 3d
       0.052557807 -0.0835189 0.27088466 0.09215894
000290 c5 52 07 3e 51 e3 91 bd 4d 51 c2 3d 7e 2e a8 3c
       0.13215168 -0.07123435 0.09488163 0.020529982
0002a0 3c 2a ee 3b fc 26 bc 3b cd f9 8a 3d bb 22 77 3b
       0.0072682183 0.005741952 0.06785927 0.003770991
0002b0 f3 d8 16 3e 97 58 6d 3d c4 e8 28 3d d5 83 15 3e
       0.14731197 0.057945814 0.041237608 0.14601071
0002c0 85 a4 e9 3c bd 7a 33 3e ee 8b 7c bd 71 12 9e bc
       0.028520832 0.1752729 -0.061656885 -0.019295903
0002d0 34 1b 86 bd 28 d4 e1 3b 46 10 5f bd 20 5c cb 3d
       -0.06548157 0.006891746 -0.05445888 0.09929681
0002e0 e7 3d fb 3c fb 4f 3b 3e 2a 75 4f 3d c9 e3 6f bd
       0.030669166 0.18292229 0.050648846 -0.058566842
0002f0 f2 0e 98 bc fb bd 38 bd 35 30 cb bd 59 39 51 3d
       -0.018561814 -0.045103054 -0.09921304 0.05108008
000300 84 0a 58 3d 28 af 0c 3c 5e d6 8e bd d4 bb 12 bd
       0.052744403 0.008586682 -0.06974481 -0.035823658
000310 63 77 91 3d e8 be f5 bd 41 6c a9 bd 8c c6 c6 3d
       0.07102849 -0.11999303 -0.08272601 0.097058386
000320 df b4 9a 3d 1a 50 0a 3d a6 bc 75 3d a4 89 cb 3e
       0.0755403 0.033767797 0.059994362 0.3975345
000330 d5 d8 c5 3e 44 21 c3 be 76 6b e9 3e bd 28 52 be
       0.38641992 -0.38111317 0.455898 -0.20523353
000340 1c ec db bd 23 7b 18 be e7 b9 3a 3d dc cb a8 3b
       -0.10738394 -0.14890723 0.045587447 0.005151255
000350 8e 85 d9 3c 79 90 46 3d ef 79 b5 3d d4 f3 6f bd
       0.026552942 0.048477624 0.088611476 -0.058582142
000360 c8 65 31 bc ad 1f c0 3d c6 99 c6 39 61 cf 8c bd
       -0.010827489 0.09381042 0.00037880073 -0.06875492
000370 d5 84 45 bc ba e3 f5 3c 37 aa b1 bc 74 28 ac bd
       -0.012055595 0.030015815 -0.02168761 -0.08406153
000380 aa 05 8f bd f2 29 4b bb 02 ca a5 bc 8c 9f 2f 3d
       -0.06983502 -0.0031000343 -0.020237926 0.042876765
000390 1a 8b ac 3d b8 38 ad bd 8b 79 82 bb 97 a4 ba bd
       0.08424969 -0.08458084 -0.003981774 -0.09113424
0003a0 f4 18 02 bc 00 ff 9b bc a1 d3 ee 3d 83 2b 10 3e
       -0.00794052 -0.019042492 0.11661459 0.14079098
0003b0 fc 4b e3 bd c6 da a8 bc d2 47 1a 3e 2a b7 3d bd
       -0.11098477 -0.020612132 0.1506646 -0.046317257
0003c0 51 a6 4c 39 4f 91 86 3e 3b cc db 3e 85 6f 5b 3e
       0.00019516914 0.26282737 0.42929253 0.2142926
0003d0 91 50 65 bd cf 22 6e bd 5b 65 01 be 6e 5c 97 3e
       -0.055985037 -0.058138665 -0.1263632 0.29562706
0003e0 ba 9e 1e bc 71 da 1f be b8 d5 32 3d 2e 21 93 3e
       -0.009681398 -0.15610673 0.04366085 0.28736252
0003f0 6e da 33 be 02 33 82 3f 56 d2 8c be 3e b5 82 be
       -0.17563793 1.0171816 -0.27504224 -0.25528902

weight_hh_l0 f4 [512, 128]
000000 89 a7 75 bd ff bf a7 3b 07 14 ab 3d ca c4 62 3d
       -0.059974227 0.0051193233 0.08353429 0.055363454
000010 35 d3 a5 bd 0c 60 4d bc 53 95 9e bd 06 62 8d 3c
       -0.08096925 -0.012535106 -0.07743325 0.017258655
000020 d9 4a b7 bd 2b a6 33 3c c7 eb 32 3d ab 0b 11 bd
       -0.08949823 0.0109649105 0.043681886 -0.035411518
000030 85 c1 2c 3d fa 91 0c 3c d2 2e c2 bc a8 bc 72 bd
       0.042176742 0.008579725 -0.023703966 -0.059261948
000040 2b f2 b2 bd cc 9c 1c 3d ee 65 bf bd 0e 7c 81 3d
       -0.08737596 0.03823547 -0.093456134 0.0632249
000050 30 77 88 bd 31 49 b4 bd 42 4d 9a 3d 8d c5 d4 bc
       -0.06663358 -0.08803023 0.07534267 -0.025973106
000060 58 d5 d4 3b 32 57 97 3d aa fe 7a 3d 74 50 bb bc
       0.006495159 0.07389678 0.061278023 -0.022865511
000070 08 2d 57 bd 09 18 c4 3b c3 58 91 bc 19 e8 1c 3d
       -0.05253318 0.0059843105 -0.01774252 0.038307283
000080 bf 60 2e 3d 77 f2 05 3d b3 7b 61 3d 17 4f 0d bb
       0.042572733 0.032701936 0.05504961 -0.0021562034
000090 0d 72 6d 3d 51 d8 0e bd 6d fa 1a 3d 19 e0 0b 3d
       0.057970095 -0.034874264 0.03783648 0.034149263
0000a0 4e b5 3a bd 3e 15 9d 3d 2a 50 c7 3d 19 88 ba bd
       -0.045583062 0.07670067 0.09732087 -0.0910799
0000b0 ef ff a5 bb 9a 98 1b bd 48 cf 8e 3d df 72 ad 3c
       -0.00506591 -0.03798733 0.069731295 0.021172939
0000c0 e8 f7 69 bd 5a f1 7a 3d 31 58 ac 3d 26 c8 83 bd
       -0.057121187 0.061265327 0.08415259 -0.0643466
0000d0 00 ba 57 bd 58 05 ba 3c 7e a5 1f 3d 56 3d bb 3d
       -0.052667618 0.022707626 0.038976185 0.09142558
0000e0 b8 40 27 3d e6 10 a5 3c 6e 3e cb bc 1c 54 74 bd
       0.040833205 0.02014966 -0.024810042 -0.059650525
0000f0 79 cf 67 3c 45 4d 37 3d e1 67 0c bd 04 02 b0 bc
       0.014148586 0.044751424 -0.034278754 -0.021485336
000100 85 39 d7 3c 97 ee a3 bd 51 f9 c9 bd 89 35 40 3d
       0.026272545 -0.08004492 -0.098620065 0.046926055
000110 eb a9 c3 3c c1 8f 07 bc d7 8c 08 bd 38 3a a8 3d
       0.023884734 -0.00827402 -0.03333744 0.08214229
000120 85 5c ae bc 98 1f ff bc 63 8d 9e 3d 92 73 01 bd
       -0.021284351 -0.031142995 0.07741811 -0.031604357
000130 28 a4 c0 bc 38 31 3d bd 2e dc 41 bd 3c 29 89 bb
       -0.023515776 -0.046189517 -0.04732912 -0.0041858237
000140 da 00 31 bd e7 df 1e bc 0d ec 65 3d 8e 81 bb ba
       -0.043213703 -0.009696937 0.05613332 -0.0014305578
000150 44 ec 7f bc f6 72 d9 bc 5e d0 0d 3d c0 4d a8 bd
       -0.015620295 -0.026544075 0.034622543 -0.08217955
000160 3a 84 ad 3d 20 d1 46 3d 88 b0 15 bd 72 31 d3 3c
       0.08472486 0.04853928 -0.036545306 0.025780413
000170 e6 32 9d 3d 18 d3 a6 3d 71 6a 12 3d 43 d0 07 bc
       0.07675724 0.08145732 0.03574604 -0.0082894
000180 94 57 75 3c e2 8a d2 bc 09 46 bf 3c b3 de 99 bc
       0.0149744935 -0.02570099 0.023348825 -0.01878295
000190 a9 31 73 bd 8d 74 35 bd d6 14 89 bd c1 4f 68 3a
       -0.05937353 -0.044300605 -0.06693427 0.0008861982
0001a0 0f d1 ea 3d a0 c7 ab bd f5 fb 29 bc 56 ef 29 bc
       0.11465656 -0.08387685 -0.010375013 -0.010372004
0001b0 02 24 9d bc b7 d6 ec 3d a9 78 97 bc 39 c4 b1 bc
       -0.019182209 0.11564391 -0.018490152 -0.021700012
0001c0 f5 43 b5 bb 6f 12 c9 bb 00 38 9b 3c 38 44 03 3e
       -0.0055317828 -0.0061362307 0.018947601 0.12818992
0001d0 f1 ba b2 bc a5 1c 68 bd e9 4a c7 3d c0 81 59 bc
       -0.021817656 -0.056667943 0.09731085 -0.013275564
0001e0 41 55 83 bd 3e 35 e2 3c 0e d5 9e 3d 79 7f 9a 3c
       -0.06412745 0.027613278 0.07755481 0.018859612
0001f0 b1 e6 c5 3d 7e f2 7a 3d 92 f6 52 3d b3 91 1f 3a
       0.096631415 0.061266415 0.05150468 0.00060870795
000200 78 db 50 3d b6 27 95 bd d4 ec 5f bd 2c 25 49 3c
       0.05099055 -0.07282965 -0.054669216 0.012276929
000210 b0 97 d0 bd cb 24 cf bc bf 40 af 3d d6 6c a9 3d
       -0.10185182 -0.025286099 0.08557271 0.08272712
000220 e8 12 e1 3c cc 13 2c 3c c2 9c cb 3d ac 5c f0 3c
       0.027474836 0.010502767 0.099420086 0.029341064
000230 fe e0 81 bb 59 8e 01 bc d2 a5 15 bd 90 97 04 3e
       -0.0039635887 -0.0079074735 -0.03653509 0.12948442
000240 24 2b 85 bc bd fb 03 3d fa a7 24 3a ad 1b 9d 3d
       -0.016255923 0.0322225 0.0006281134 0.07671294
000250 ed af 3b 3e 8c 7b 7f 3d 85 2b 66 3d 3c 08 d1 3d
       0.18328829 0.062373683 0.056193847 0.10206649
000260 ec f3 dd 3c 67 36 9a 3d 90 a2 d2 3b ef 00 15 3d
       0.02709385 0.07529908 0.0064280704 0.036377843
000270 53 99 59 bd 36 f1 2f 3a ca b2 d3 bb d2 da 05 3d
       -0.053124737 0.00067116634 -0.0064605223 0.032679386
000280 c1 07 dc bb 5f eb 03 3e e5 9d 25 bd d0 11 e8 bc
       -0.0067147915 0.12882756 -0.040433783 -0.028328806
000290 1f 7f ae 3d 3c 56 e6 3d af a1 7e 3d 3f 02 8a 3d
       0.0852034 0.11246917 0.062165912 0.0673871
0002a0 ea 97 57 bd 28 64 17 bd c8 e8 d1 3c cc b3 77 bd
       -0.05263511 -0.03696075 0.025623694 -0.060474202
0002b0 6f 62 80 3c e8 56 9d 3c 44 6a be ba b2 73 61 bd
       0.015671937 0.01920648 -0.0014527519 -0.055041976
0002c0 8d 38 1f bd 1d 81 7d 3d 35 6c 92 3d 59 1a 4d bd
       -0.03887229 0.06189071 0.07149545 -0.050073955
0002d0 7a 48 b0 bc de d1 8b bd 95 04 bf 3c fc 98 54 bd
       -0.021518935 -0.06827138 0.023317615 -0.05190371
0002e0 1d 7c 75 bd 52 f2 b5 bd f8 ae 9a 3c 27 bd eb bb
       -0.059932817 -0.088841096 0.01888226 -0.0071941796
0002f0 6d ca 8c bc 43 ea a4 bd 73 05 b7 bc d8 7d 85 3d
       -0.017186368 -0.080524944 -0.022341466 0.065181434
000300 f1 6a 3e 3e e4 a6 89 bd 03 7d 26 3d 5b c0 84 3d
       0.18595482 -0.06721285 0.040646564 0.064820014
000310 f6 9e cc 3d 08 2e 1c 3d 32 45 ab bd 14 29 e2 3c
       0.09991257 0.038129836 -0.08362807 0.027607478
000320 61 fc 1e bd 3f 8d d1 bc 5f c8 98 bd 2d 48 82 3d
       -0.038814906 -0.025580047 -0.07460093 0.06361423
000330 7a 5b f2 ba c7 ec 17 3d c3 fe 3b bd 48 16 01 be
       -0.0018490397 0.037091043 -0.045897257 -0.12606156
000340 45 0d 3a 3d ff 0e ac 3c 20 ba cc bc 92 4e 78 bd
       0.04542281 0.021003244 -0.024991095 -0.060621805
000350 36 35 bc bd c3 b8 a0 bc c4 13 43 3d 0f 91 93 3d
       -0.09189837 -0.019619351 0.04762627 0.07205402
000360 7e b1 05 3e ca d1 a8 3d 3c 80 2f bd f6 95 cf 3d
       0.13055989 0.08243139 -0.042846903 0.10136025
000370 79 06 58 bd 25 fc b5 bc 82 b7 c3 3c 82 1f 8f 3d
       -0.052740548 -0.022214958 0.023891214 0.069884315
000380 d5 9f d2 3d 64 2d 84 3d fb bd 26 bd 36 30 34 3d
       0.10284392 0.0645397 -0.040708523 0.04399129
000390 48 28 df 3d 3e 4d bc bd 2a 85 0a 3d 12 48 bb bb
       0.10896355 -0.0919442 0.0338184 -0.0057153786
0003a0 c9 dc d9 3d 68 fe 86 bb 74 6c d7 bc 16 a8 49 3d
       0.106378146 -0.004119683 -0.026296832 0.049232565
0003b0 be 7f 8f bc 6a 10 30 bd 64 00 0d 3e 8f 1c c3 bc
       -0.017516967 -0.042984404 0.1376968 -0.023817329
0003c0 c9 3a 24 3d 95 2f 9f 3d 96 bc 8d bd e0 d1 6e 3c
       0.040095124 0.077727474 -0.069207355 0.014576405
0003d0 5d 5b fd 3c 60 7a e5 bd f5 1b 95 3b e1 ca ae 3d
       0.030927354 -0.11204982 0.004550452 0.0853479
0003e0 68 33 fd 3c 01 54 4e ba 3d 52 8f bc 30 21 d7 3c
       0.030908301 -0.0007870794 -0.017495269 0.026260942
0003f0 c4 c8 60 3d c2 d9 5e 3c fc 29 87 3d 23 32 65 3d
       0.054878965 0.013601722 0.06599805 0.055956017

bias_ih_l0 f4 [512]
000000 f3 aa 23 3c 01 6d 81 3e f1 9f 24 3e a8 0c ef 3d
       0.009989488 0.25278476 0.16076638 0.11672336
000010 44 7d 05 3e c9 3e 0e 3e 47 a2 4b 3e 8b 58 93 3d
       0.13036066 0.13891138 0.19886123 0.071946226
000020 75 af 53 3e 7f e4 71 3d d4 67 15 3e 8b a7 c5 3e
       0.206724 0.0590558 0.14590389 0.38604388
000030 8c 50 7a 3e 0c 5d bd 3a 1f c2 86 3e 38 85 f9 3d
       0.24444789 0.0014447286 0.26319978 0.121836126
000040 55 5b 38 3e 4a 59 3e 3e a7 5a 40 3d 75 1d b3 3d
       0.1800359 0.18588749 0.046961453 0.08745853
000050 fe 64 71 3d 50 98 20 3d fa 93 85 3d 2b 1d 54 3d
       0.058934204 0.039207757 0.06522365 0.05178563
000060 36 ec 72 3e f8 3d 8d 3d 03 a1 a4 ba a2 75 e3 3d
       0.2372292 0.06896585 -0.0012560192 0.11106421
000070 25 92 66 3e 32 c5 16 3e fd d6 67 3d 2d 37 4e 3d
       0.22516687 0.14723662 0.056601513 0.05034559
000080 1e 5f 73 3e d3 59 6d 3e f6 80 86 3d 45 b0 cf 3d
       0.23766753 0.23178796 0.06567566 0.101410426
000090 b0 5b 93 3e 14 97 25 3f 77 0d 5a be fd 18 7a 3d
       0.2878089 0.6468365 -0.21294199 0.061058987
0000a0 e0 fb 1a 3e 95 18 35 3e 10 11 87 be 8f 48 a9 3e
       0.15135145 0.17685159 -0.26380205 0.3306317
0000b0 59 38 4f 3e 27 02 88 3d af 03 dc 3b 2c be 2b bc
       0.20236339 0.066410355 0.0067143063 -0.010482352
0000c0 45 f7 2d 3e 43 34 79 3e 44 9a 9c 3d 0a cc 80 3e
       0.16988857 0.24336343 0.07646611 0.2515567
0000d0 1b 6c 90 3b 78 64 28 3e d2 f9 08 3e dd af 6b 3d
       0.0044074184 0.16444576 0.13376549 0.057540763
0000e0 cf 9a 94 3d 92 7d 1a 3e b4 b9 29 3c a1 0d 7f 3e
       0.0725609 0.15086964 0.0103592165 0.24907543
0000f0 41 5d 3f 3e cd cf 02 3e b8 e3 ec 3d 4e ca 50 3e
       0.18687917 0.12774582 0.115668714 0.20389673
000100 37 6c 3e 3e 14 ab 0e 3e 43 51 8e 3e 85 17 da 3d
       0.18595968 0.13932449 0.27796373 0.10649017
000110 39 9b c2 3e 2b 7c 67 3e 1e 52 cb 3d c0 b6 dd 3d
       0.3800905 0.2260596 0.09927772 0.108258724
000120 b4 d2 f0 3d 46 1f 85 3d 24 78 5d 3e 23 00 04 3e
       0.117589384 0.065001056 0.21627861 0.12890677
000130 d3 46 97 bc 55 cd 04 3e fb 74 96 3e e5 5a b1 3d
       -0.018466389 0.12968953 0.29386124 0.08659915
000140 e1 8a a5 3e 1c 6d 3b 3c 24 8b 45 bd 8c e1 b4 3c
       0.3233252 0.011439588 -0.048228398 0.022080205
000150 7a 8f 28 3d 6b f6 20 3e 17 8e 2f 3e 06 88 9a 3e
       0.041152455 0.15719001 0.17144047 0.30181903
000160 26 6f e5 3d 17 b5 85 3e d5 f0 9f 3d 9a ca 16 3e
       0.112028405 0.26114723 0.07809607 0.14725724
000170 eb 9e 9f 3d 5e 56 75 3d 62 42 55 3e 1b aa 02 3e
       0.07793983 0.05989682 0.20826104 0.12760203
000180 1b 64 a0 3e cd 3c fb 3c 62 29 97 3e 44 aa 7c bc
       0.31326374 0.03066864 0.2952376 -0.015421454
000190 84 8a 30 3e e0 89 12 3b 3f 8c ab 3e ce fe 29 bd
       0.1724034 0.0022360012 0.33505437 -0.041502766
0001a0 5d 97 ce bd 63 d0 af 3d 0e 72 33 3e 8a 76 4e 3e
       -0.10087464 0.085846685 0.17523977 0.20162407
0001b0 37 56 72 3e fc 94 78 3d 5a b5 da 3e 0f 01 86 3e
       0.23665701 0.060688958 0.42716485 0.26172683
0001c0 61 20 10 3e 78 18 9a 3d 10 e6 46 bd 11 9c 62 3e
       0.14074852 0.07524198 -0.04855925 0.22129847
0001d0 ae 90 1b 3e 5a 25 05 3e aa 48 a2 be 7c 84 b5 3c
       0.1519191 0.1300253 -0.31696063 0.0221579
0001e0 3d 9f a6 3d 15 97 bb 3b aa ba 07 3e 61 45 59 3e
       0.08135841 0.0057247975 0.132548 0.21217872
0001f0 bb 4e 2a 3e 81 54 f3 3d b0 85 30 3e a3 49 1f 3e
       0.16631596 0.11881352 0.17238498 0.15555434
000200 cd c1 03 39 00 7c c0 bd df 92 42 be 45 48 a0 bb
       0.0001256533 -0.09398651 -0.1900134 -0.0048914277
000210 69 ae 13 3d 11 f7 12 be 3f 41 5e be 11 7e 1c be
       0.036055002 -0.14352061 -0.21704577 -0.15282466
000220 78 6d c8 be ba a1 94 bd 25 c5 4b bf cd 3c 9f be
       -0.39146018 -0.072574094 -0.79597694 -0.31101075
000230 e1 25 9c be be 7a a0 bc 20 68 6b be 52 ff 04 bf
       -0.3049765 -0.019589778 -0.2298894 -0.5195209
000240 53 e9 de bc 9d f7 be bc 3e 49 78 bd 53 88 09 bd
       -0.027210867 -0.02331143 -0.060616724 -0.033577275
000250 06 e2 33 be ad b4 86 bd 50 00 11 3d 77 91 1f be
       -0.1756669 -0.0657743 0.03540069 -0.15582834
000260 71 d8 0e be 60 90 ab be da 82 30 be aa c2 1a be
       -0.13949753 -0.33508587 -0.17237416 -0.15113321
000270 be f8 10 be a2 8d 58 bc a2 67 42 be 51 e3 53 bd
       -0.14157388 -0.013217362 -0.18984845 -0.051730458
000280 09 20 22 be bd 8f e1 be ae 65 c0 bd 94 aa a8 3d
       -0.15832533 -0.44054976 -0.09394394 0.0823566
000290 2d d8 eb be 6e a6 27 bf b6 db 28 bf 0f 8a 84 be
       -0.46063367 -0.65488327 -0.6596025 -0.2588658
0002a0 e5 c4 36 bd b6 39 d2 bd dd d4 1d bf 25 a7 7e be
       -0.044621367 -0.10264914 -0.6165293 -0.24868448
0002b0 00 d2 04 be 9c 8b 1c be 91 03 c8 bd bb ea 84 bd
       -0.12970734 -0.15287632 -0.09766305 -0.06490084
0002c0 5d 3f 6d 3d 41 bd 91 be 12 be c0 bd 74 8a 31 be
       0.057921756 -0.28464702 -0.09411253 -0.17337972
0002d0 ac 4d 94 3a 46 a5 59 3d 16 13 97 bd d6 5f 28 bd
       0.0011314652 0.053136133 -0.07376687 -0.04110702
0002e0 0d 86 c1 3c 5a 66 64 bd 4b ca b7 bd 65 c2 bf be
       0.02362349 -0.055761673 -0.08974131 -0.37453
0002f0 db 7c 75 be 6a be e0 bd 58 26 1a be fc 3f ab bd
       -0.2397341 -0.109738186 -0.1505369 -0.083618134
000300 40 20 e4 be 0f 73 dd bd eb 18 8d be 9c 2c 10 be
       -0.44555855 -0.10812961 -0.27558073 -0.14079517
000310 89 66 a8 be 69 b2 63 be c0 db 12 be e2 22 0f bf
       -0.32890728 -0.22236027 -0.1434164 -0.559126
000320 91 c8 0e be 95 cd 8b bd 65 99 5e be cf bc a2 bc
       -0.13943698 -0.06826321 -0.21738203 -0.019865422
000330 e8 08 cd be f0 38 04 3c bd 21 1e be f3 7e ea bb
       -0.40045857 0.008070216 -0.15442558 -0.007156247
000340 dd 04 26 be 17 43 b8 bd 1b 2a 62 3c 8c c6 02 be
       -0.16212793 -0.08997171 0.013803984 -0.12771052
000350 85 97 89 b7 7d 65 09 be 83 c1 ea bd a3 85 8a be
       -1.640223e-05 -0.13417621 -0.11462691 -0.27055082
000360 a0 52 40 bd 8f 19 bf bd dd 3b 07 be 09 0e 99 bd
       -0.046953797 -0.09331047 -0.1320643 -0.0747338
000370 51 d3 ef 3c 08 7d 59 bd 4f f1 e4 bd ba 3a 07 bf
       0.029275568 -0.053097755 -0.111788385 -0.52823985
000380 1e 28 a1 be f8 bf cf be 9e db 4b be 4b 2d c6 be
       -0.3147592 -0.40576148 -0.19907996 -0.3870643
000390 85 d5 84 bd fd 3d 3c be 1c 35 8d be bc 55 a0 be
       -0.06486038 -0.18383022 -0.27579582 -0.3131541
0003a0 17 bb 9e be ba e0 50 bd 23 63 15 be 98 e6 c6 be
       -0.31002113 -0.050995566 -0.14588599 -0.38847804
0003b0 cb 42 57 bd 0c 05 b6 be 46 26 9b be 04 e8 0a be
       -0.052553933 -0.35550725 -0.30302638 -0.1356507
0003c0 f2 18 15 bd bd 75 cb b9 4d 3b ec be 01 84 57 bd
       -0.036400743 -0.000388069 -0.46138993 -0.052616123
0003d0 b7 d9 91 be 4e fd 67 bd 70 83 04 bf bd 04 80 bc
       -0.28486416 -0.056638055 -0.5176306 -0.01562726
0003e0 81 94 35 bd a7 e0 90 bd 9e 77 4a be 0b 87 23 be
       -0.044331077 -0.07074099 -0.19772193 -0.15969484
0003f0 21 66 b9 be ef 8f 38 be e4 e6 85 be ec 66 d4 bd
       -0.3621073 -0.18023656 -0.26152718 -0.10371193

bias_hh_l0 f4 [512]
000000 df eb 1d 3e 82 63 98 3e a7 65 59 3e 1b 7b 03 3d
       0.15422009 0.29763418 0.21230184 0.032099824
000010 46 f6 1b 3e d5 f2 ae 3d 22 dd 5b 3e 16 3d 8d 3d
       0.15230665 0.0854241 0.21471074 0.06896417
000020 67 6c 6b 3e 22 05 27 3e 8b 1f 9c 3d ed ed d2 3e
       0.22990571 0.16310552 0.07623204 0.41197148
000030 8b 7c 87 3e 0d 93 ff 3c a2 b3 4e 3e 27 8b bb 3d
       0.26462206 0.031198049 0.20185712 0.091574006
000040 45 92 5e 3e f3 ce 66 3d 70 95 11 3e 09 e8 0d 3e
       0.21735485 0.056349706 0.14217162 0.13858046
000050 a8 de 9e 3a c4 14 c1 3d c8 7f 06 3d 31 c1 1f 3e
       0.00121208 0.09427789 0.032836705 0.1560104
000060 d9 27 46 3e 57 c9 ac 3d 41 6c 5b 3d 5b d1 60 3e
       0.19351138 0.0843684 0.053570036 0.21954863
000070 47 fe 05 3e 79 3f 1e 3d a1 29 99 3d 2a 25 3d 3e
       0.1308528 0.03863475 0.07478643 0.18471208
000080 18 5c 7c 3e f8 e8 52 3e 4b 7e e3 3c 7a bf 26 3e
       0.24644506 0.20596683 0.027770182 0.1628398
000090 7f ca 97 3e 2f 58 20 3f 01 0e 8e bd e0 1f 5a 3e
       0.2964668 0.6263456 -0.06936265 0.21301222
0000a0 4d a5 b4 3d 46 6f b3 3c fe f9 54 be be 60 a7 3e
       0.08820591 0.021903645 -0.2079849 0.32690996
0000b0 0f 08 57 3e 46 05 59 3d 4a de a4 3d 58 ba ee bc
       0.20999168 0.052983545 0.08050211 -0.02914159
0000c0 51 4a 1a 3e cc d7 47 3e c5 04 92 3c 9a 6b 9f 3e
       0.15067412 0.19515914 0.01782454 0.3113678
0000d0 92 00 5b bd 14 5a 9f 3c 17 6a 79 3e 5c 8a 18 3e
       -0.05346734 0.019452132 0.24356876 0.1489653
0000e0 aa 5b 09 3d cd 43 18 3e 6f 1b 96 bc d3 bd 84 3e
       0.033534683 0.14869614 -0.018323628 0.25926074
0000f0 ed 5f 21 3e 13 fc 8e 3d d0 09 2a 3e ea 1b 4f 3e
       0.15759249 0.06981673 0.16605306 0.20225492
000100 af 7f de 3d 2a 11 4d 3e 8d 25 61 3e 9e d5 76 3e
       0.108641975 0.20026079 0.2198698 0.24104926
000110 0d 43 7c 3e db 80 2a 3e c5 24 29 3e 98 0e 56 3e
       0.24634953 0.16650717 0.16517933 0.20904005
000120 44 4c ba 3d ca f5 42 3d 3f 1d b3 3d 70 9d 3e 3e
       0.09096578 0.047597684 0.087458126 0.18614745
000130 9e 8c c3 bd 70 b6 a3 3d a1 c6 89 3e 37 3c a2 3d
       -0.09548305 0.079937816 0.26909354 0.07921641
000140 ad 5e 8c 3e 51 ac bb 3d ab fa 28 bd 9f b8 d3 3d
       0.27415982 0.09163726 -0.04125468 0.10337948
000150 31 7b 5a 3d 11 54 4c 3e ed a8 e7 3d 3e 49 80 3e
       0.05334014 0.19953944 0.11311517 0.2505588
000160 f1 27 65 3d 78 13 4b 3e 1a 78 ac 3c fa 00 b2 3c
       0.055946294 0.19831645 0.021053363 0.021728981
000170 e0 3d e8 3b 63 e5 94 bd 5c eb 72 3e 87 74 06 3e
       0.007087454 -0.072703145 0.23722595 0.13130389
000180 4b d3 91 3e d9 b6 b4 3c cc 2d 96 3e c7 74 29 bd
       0.28481516 0.022059845 0.29331815 -0.041371133
000190 cd 59 68 3e ca bc 47 3d b6 7e 85 3e 2c 7d 8d 3d
       0.22690506 0.048764028 0.26073235 0.0690864
0001a0 91 f6 b7 bd ab 45 aa 3d d5 bc 72 3e 1a a3 2e 3e
       -0.08982576 0.08314069 0.23704846 0.17054406
0001b0 bb 40 92 3e 41 c1 1e 3e 2c 21 f0 3e 2d 73 04 3e
       0.2856501 0.15503408 0.46900308 0.12934561
0001c0 5a d5 b8 3d 8e 7d 3c 3e 87 aa 74 bd fa 16 3e 3e
       0.090250686 0.1840727 -0.05973294 0.18563452
0001d0 2a e5 31 3e be 73 9c 3d fe cf 91 be c6 26 91 3d
       0.17372575 0.076392636 -0.28478998 0.070874736
0001e0 df fc 14 3e ae cf 10 3e b1 7f 12 3e 40 03 8a 3e
       0.14549588 0.14141724 0.14306523 0.26955605
0001f0 e7 75 7b 3d 36 0e 34 3e 18 b6 90 3e eb c5 28 3e
       0.061391737 0.17583546 0.28263927 0.1648175
000200 49 9c 06 be 5a f8 b3 bd 2c bd a6 bd f5 43 97 bd
       -0.13145556 -0.08787604 -0.081415504 -0.07386009
000210 3c 21 68 bd 06 71 3f bd f8 1f 60 be 45 3e 1f be
       -0.05667232 -0.046738647 -0.21887195 -0.15551098
000220 01 6b dd be 26 3c 34 3c 49 73 47 bf e6 13 43 be
       -0.432457 0.011000669 -0.77910286 -0.1905056
000230 7a 68 a1 be 91 97 d8 bd 4c b1 81 be e9 a0 f8 be
       -0.31525022 -0.10575784 -0.2533058 -0.48560265
000240 1b fa c1 bd b5 d8 34 bd ed 29 96 bd d4 5d 4d be
       -0.09471532 -0.04415198 -0.073322155 -0.20055324
000250 d2 c1 55 be 56 ba c4 bd 62 32 a3 3b 17 1f 0d be
       -0.20874718 -0.09605853 0.0049803713 -0.13781391
000260 dc 55 64 be fc 79 b2 be bc 64 07 bd ef 84 87 be
       -0.22298378 -0.34858692 -0.033055052 -0.26468608
000270 b8 1e 4e be 88 e7 aa bd 02 cf 63 be 9d f0 60 bd
       -0.20128906 -0.08344942 -0.22246936 -0.054916967
000280 b3 ac 24 be da 47 b5 be c6 3c e9 3c 38 24 5c bc
       -0.16081505 -0.3540638 0.028471362 -0.01343637
000290 30 0f e0 be fa 17 1f bf 48 98 36 bf f7 37 a0 be
       -0.43761587 -0.6214596 -0.7132611 -0.31292698
0002a0 43 53 8e bb 1c 76 de bd 5e 71 38 bf f6 00 0b be
       -0.0043434217 -0.10862371 -0.72047985 -0.13574585
0002b0 3d 7b 20 be 99 27 de bd 6e 2b 12 bd 63 0e e9 bc
       -0.15672012 -0.108473964 -0.03568595 -0.028449243
0002c0 47 8f 5e bd 66 57 97 be cc 64 77 bd 65 ea 15 be
       -0.05433586 -0.29558867 -0.06039886 -0.14640196
0002d0 5a 45 2d bd 73 09 66 3d 98 78 df bd e9 ae 52 3d
       -0.042302467 0.056161355 -0.10911673 0.05143634
0002e0 2b a9 cc bd 56 f8 09 be 3e 36 4a bc 1e 11 a0 be
       -0.09993204 -0.13473639 -0.012342034 -0.3126306
0002f0 40 7e 6b be cf 0a bb 3a fa e4 3f be 92 34 89 bd
       -0.2299738 0.0014270189 -0.18739691 -0.0669948
000300 80 19 07 bf c5 1d 01 be 99 0d 86 be 09 69 83 be
       -0.52773285 -0.12609012 -0.2618225 -0.25666073
000310 ea 3d 3c be e1 58 ec bd 4b ec 8d bc 81 28 f2 be
       -0.18382993 -0.1154039 -0.017324587 -0.47296527
000320 68 36 47 be 02 00 d6 bd af 60 62 be c7 f8 9c bd
       -0.19454348 -0.1044922 -0.22107194 -0.07664638
000330 d4 e2 b0 be 8b 0d fb bb b8 e7 36 be 37 b7 97 bc
       -0.34548056 -0.0076615266 -0.17861831 -0.01851998
000340 ea 59 82 bd cb 0c 2e be 73 22 92 bc f8 24 15 bd
       -0.06364806 -0.16997068 -0.017838692 -0.03641221
000350 54 60 1a bd de 91 46 be cd 10 d0 bd a2 07 7e be
       -0.037689522 -0.19391581 -0.101594545 -0.24807599
000360 ee f7 0b bd 6c d0 97 bc 2d 0d 02 be 50 4e 09 bd
       -0.03417199 -0.018532 -0.12700339 -0.03352195
000370 ed 73 1d 3d 70 ca cc bc 08 bc 43 be 9d e3 08 bf
       0.038440634 -0.024998873 -0.19114697 -0.5347231
000380 04 11 8f be 52 c4 fd be 89 85 82 be 75 4d 9d be
       -0.2794267 -0.49563843 -0.25492504 -0.30723158
000390 c0 af c9 bd 1e cc 5f be 4f 03 79 be db 6a 6b be
       -0.09847975 -0.21855208 -0.24317668 -0.22989981
0003a0 d0 eb 73 be 8e 09 be bc b4 7f 69 be bb 21 bd be
       -0.23820424 -0.023197915 -0.22802621 -0.36939797
0003b0 82 41 11 be 73 bf 9f be 33 03 95 be 30 8c 21 be
       -0.14185145 -0.31200752 -0.29104003 -0.15776134
0003c0 91 b0 b1 bd fd 22 17 3d 19 69 dc be 68 48 19 be
       -0.086762555 0.0368986 -0.43048933 -0.14969027
0003d0 c7 56 80 be 19 6d fa 3c c6 36 1b bf 07 36 03 bd
       -0.25066206 0.0305696 -0.6063045 -0.032033946
0003e0 48 60 41 bc 18 5e 83 bd f7 77 08 be 76 98 34 be
       -0.01180274 -0.06414431 -0.13327013 -0.17636284
0003f0 78 2c aa be db 41 a2 bd 28 26 9e be 93 68 17 be
       -0.33237052 -0.07922717 -0.30888486 -0.14785986

weight f4 [10, 128]
000000 7c 5f 1e be 52 e5 2b bc 6c c7 03 3e 64 a0 ca bd
       -0.15466112 -0.010491686 0.12869042 -0.09893873
000010 19 b4 7e 3e 48 44 71 bd 4b 61 43 be e4 b2 12 be
       0.2487339 -0.05890301 -0.19080083 -0.14326054
000020 94 91 0e 3f 4c 39 90 bd c1 e5 31 3e 38 16 be 3c
       0.55690885 -0.070421785 0.173728 0.023203954
000030 76 ae a7 3d fb 55 fd bd f7 88 d6 bd 95 de 8b be
       0.08187573 -0.12369915 -0.10475343 -0.27318254
000040 fe 55 62 3c c4 90 71 be e1 01 d5 bb 4f cb f2 bd
       0.013814447 -0.2359038 -0.006500468 -0.11855184
000050 7d e3 8b 3d 51 0e 39 3e e4 59 03 be 52 5d d7 3d
       0.06830499 0.18071868 -0.1282726 0.10515846
000060 a7 78 81 3c 7f 09 72 be 46 b7 43 bb 03 c2 1f 3e
       0.015804602 -0.23636435 -0.0029863878 0.15601353
000070 ce 85 24 be ee 9d a1 3d 38 b0 7d 3d fd 4a 82 bd
       -0.16066667 0.07891451 0.061935633 -0.06361959
000080 bb 08 3b 3d 62 60 ce be c2 a7 4a bc e2 a2 5c 3e
       0.045662623 -0.4030791 -0.012369098 0.2154651
000090 d4 a9 25 bd 28 56 ad bf 33 f7 14 bd fc 88 09 bd
       -0.040445164 -1.3541918 -0.03636856 -0.033577904
0000a0 a0 b8 ac 3e c0 40 82 3c ee a4 eb bc 94 c5 86 3d
       0.33734608 0.015900016 -0.028765168 0.06580654
0000b0 3e 53 35 39 71 40 eb bd cb f2 d9 3d 18 ce ca bd
       0.00017292515 -0.114869006 0.10642012 -0.099025905
0000c0 44 8e 66 bc 2b 6f 75 3d 3a 39 dd be b6 ef 67 be
       -0.014072005 0.05992047 -0.43207723 -0.22650036
0000d0 54 4f 79 bd bb 89 6c 3d fc 46 91 3c 4a 65 e5 bc
       -0.06086667 0.057748538 0.017734043 -0.0280024
0000e0 18 97 b3 3b 65 9a 25 3e 35 35 fb bd 93 aa ae bd
       0.0054806583 0.16172178 -0.12266008 -0.08528628
0000f0 69 25 ba bd a6 b1 c9 3d 2f 64 ec bc 37 8d ca 3d
       -0.09089167 0.09848337 -0.028856365 0.09890216
000100 a0 87 c1 be 1b 6d 4f bd 3f f4 32 3e 41 a7 40 3b
       -0.37798786 -0.05064116 0.17475985 0.0029396566
000110 14 d1 dd bc 01 a8 bc 3d cc cd 34 3e 94 28 84 be
       -0.027077235 0.09211732 0.1765663 -0.2581221
000120 11 9e 1e 3f 46 60 ee bc 01 70 ef 3c c5 1e 36 3d
       0.6195994 -0.029098641 0.029228212 0.044462938
000130 42 6e 8b 3d c8 d2 03 be 74 46 0a 3e b7 07 26 3f
       0.068081394 -0.12873375 0.13503438 0.6485552
000140 5d 5f 64 3d 3a 76 7c bd 63 2e 65 be 6a 07 9c 3b
       0.055755008 -0.061636187 -0.22380976 0.004761626
000150 d4 40 21 3e 44 81 e5 3d 56 4b 28 be 8e f9 bf bc
       0.15747386 0.11206296 -0.16434988 -0.023434427
000160 0a 45 2f be 98 f2 f5 3d 77 b4 09 3d bc 87 cf ba
       -0.1711618 0.12009162 0.03361937 -0.0015833299
000170 5b 74 b6 bd cb 9c 01 be 9e 23 b5 3c f6 22 e7 bc
       -0.08908912 -0.12657468 0.02211171 -0.028214913
000180 f6 6e 69 bd f7 8b 93 be 7a 3d ad 3d 77 fd a0 be
       -0.056990586 -0.28817722 0.08458991 -0.31443378
000190 f0 06 91 bc 58 e1 6d 3e cf 90 b7 3d 96 4b e6 3d
       -0.017703503 0.23230493 0.08963167 0.112448856
0001a0 86 80 27 be e0 53 ec bd 79 96 e2 bb 25 01 ff bb
       -0.16357622 -0.115394354 -0.0069149104 -0.007782119
0001b0 41 69 af 3d 92 0e 8a be e7 dc 9e bf ce 28 a7 bc
       0.085649975 -0.2696424 -1.2411164 -0.0204052
0001c0 e3 2e 30 bd d7 64 ed bd a9 74 88 3e 60 27 75 be
       -0.043013465 -0.11591499 0.26651505 -0.23940802
0001d0 9b 8c a9 bd e9 05 39 3e 9c f3 3b be 97 6a c4 bd
       -0.082787715 0.18068661 -0.18354648 -0.09590643
0001e0 43 4d ad bd 11 61 ac bd 01 15 ad bd cd 84 0c 3d
       -0.08462002 -0.084169514 -0.08451272 0.034306336
0001f0 f5 bf 86 3e 8a 67 9a bd 83 1b 45 be f0 0f eb bd
       0.26318327 -0.0753928 -0.19248776 -0.11477649
000200 7e 68 03 bd 64 e9 6e 3e 07 1d e9 3c 9b c0 0a 3d
       -0.032082073 0.23331219 0.028456224 0.03387509
000210 24 b2 4b 3d 40 6d 5f 3d 38 d4 63 3e b0 3e 1c 3e
       0.049730435 0.05454755 0.22248924 0.15258288
000220 0b 09 0e bf 0a db d6 3c 76 b2 b9 be a2 53 b2 bd
       -0.5548255 0.026227493 -0.36268967 -0.08707358
000230 af b0 05 3e 2a fe b3 bc 49 da bc 3d 6b 29 f3 3d
       0.1305568 -0.02197178 0.09221322 0.11873134
000240 c2 b4 8b 3c f3 c5 3b bd 87 80 74 3d 11 0b 07 3e
       0.017053965 -0.045843076 0.059692886 0.13187815
000250 26 cb 63 3e 69 f0 89 3d 4b b7 47 3d 4f 8c f8 ba
       0.22245464 0.06735308 0.048758786 -0.0018962714
000260 aa dd 9b 3c 6b 95 c3 bd 82 28 00 3e 06 25 b3 3e
       0.019026596 -0.095499836 0.12515453 0.34989184
000270 12 d0 6b be 92 0e 2a 3d fc 38 8a bd 48 1e 03 3e
       -0.23028591 0.0415178 -0.0674915 0.1280452
000280 21 11 59 3c b2 97 a1 3e 2b a7 15 3d 2f b9 17 be
       0.013248713 0.31561047 0.036536377 -0.14816736
000290 4d 41 4e 3f 7c bf 40 3f 3e 55 c2 be b0 0e bc 3d
       0.8056839 0.7529218 -0.3795566 0.09182489
0002a0 e5 42 c6 3d c5 94 7a 3b 34 c5 69 3e 0d ed 4f be
       0.09680728 0.0038235646 0.22829133 -0.20305271
0002b0 1a 98 cf bd eb 07 8b 3d fd 4c 7b 3c f9 e3 13 3c
       -0.10136433 0.067886196 0.01533818 0.009026521
0002c0 5a 6b 96 3c a4 3d 8c be 8a a3 3b bd 74 e5 bd bd
       0.018361736 -0.27390778 -0.04581026 -0.0927228
0002d0 29 ed c2 3d 53 fd f7 3d 3c b7 81 3d b1 3e fc 3c
       0.09517891 0.12108865 0.06333777 0.030791612
0002e0 73 34 02 be dd cd f7 3d 65 c6 c9 bd fd de 3b 3e
       -0.1271532 0.12099812 -0.09852294 0.18346782
0002f0 f9 ca 33 3e 53 3d 03 3d 1d e3 aa 3d a6 ce 34 3d
       0.17557897 0.032040905 0.083441 0.044142388
000300 e7 eb 24 3f a5 e9 7e bd 89 9c 34 3e 07 90 80 be
       0.6442246 -0.06223454 0.17637838 -0.25109884
000310 62 5d 25 3e ff f3 02 bc 1b 1c 18 3d 08 0f ea bd
       0.16148904 -0.0079927435 0.03713618 -0.11428648
000320 eb 8c b8 bc 0f ba 02 3e 7e 52 95 3d 23 a0 5d 3d
       -0.022528132 0.12766288 0.07291125 0.054107796
000330 fc 0c d0 3a 3c 6b 19 3b a7 3c 07 be 38 d3 f3 3c
       0.001587301 0.0023409864 -0.13206731 0.029763803
000340 f0 70 18 3e 51 2d 7f 3d d7 f1 b8 bd e4 f7 6a bd
       0.14886832 0.062299076 -0.09030502 -0.057365313
000350 87 24 8d 3e 77 ae 2a bd 49 04 5a bd 72 ba f4 3d
       0.2756693 -0.04167029 -0.053226743 0.11949624
000360 82 75 66 3e 69 c2 87 3e 05 26 8f 3d d3 55 b4 3d
       0.22505763 0.2651551 0.069896735 0.08805432
000370 da 5d e3 3d 8b 15 8c 3d 6f b5 b4 3c 74 4c 96 bd
       0.11101885 0.068400465 0.02205917 -0.07338801
000380 72 50 36 3e 9a d5 cf be d6 a2 31 3e fd ff ce be
       0.17804125 -0.40592653 0.17347273 -0.4042968
000390 93 6c 39 3e b9 7f bf be bc 70 71 bd 64 a9 e1 bd
       0.18107824 -0.37402132 -0.058945403 -0.11018637
0003a0 18 60 64 3f d6 73 bd ba 7b 5e 3a 3e 41 b7 64 3d
       0.8920913 -0.0014454077 0.18200104 0.055838827
0003b0 ca 4e 87 be 58 72 3a 3d a1 a9 02 bf f5 7f 2f be
       -0.264273 0.045519203 -0.51040083 -0.17138655
0003c0 9f e4 ef 3d b3 a3 b6 bc ba 0c 4c 3d 88 36 eb 3d
       0.11713528 -0.022294855 0.049816824 0.114850104
0003d0 8d 1c c3 3d 31 35 03 bd 5f 89 43 3f b6 ee 74 bd
       0.0952693 -0.03203315 0.76381487 -0.059797965
0003e0 93 11 4f 3d b6 88 78 3c 0f 2d 3f 3d 5e 35 24 bd
       0.05055387 0.015169313 0.04667383 -0.040089957
0003f0 32 e0 62 bd 3f bb 63 3d 52 55 46 bc d1 df 97 3d
       -0.05538959 0.055598494 -0.012105303 0.074157365

bias f4 [10]
000000 72 f6 ce bf 6f c2 0e 3e e2 d5 35 3e bd 1b a1 be
       -1.6168959 0.13941358 0.17757371 -0.31466475
000010 70 4f a6 bc 5b fd 1b 3f ab 86 c8 bc 43 6a 14 be
       -0.02030155 0.60933465 -0.024478277 -0.1449366
000020 6e d5 09 3f 12 63 03 3f
       0.5384129 0.51323044
